checkpoint.pth (torch_old, 849601 bytes, 32 tensors)

conv1.weight f4 [16, 3, 4, 4]
-0.4356341 -0.6782423 0.15335815 0.64372176 -0.39837503 -0.0071332133 0.5863783 1.1914904
-0.08088995 -0.54822516 -0.030508474 -0.08878915 -0.29311055 -0.28690898 0.19133098 0.16754977
0.60425514 0.50880307 0.014014369 -0.031299427 0.3031264 0.3851672 0.26522464 0.46928197
-0.7359934 -0.6066939 0.09892234 -0.12859175 -0.22863539 -0.23700464 -0.13846548 0.27330786
0.06266013 -0.41669604 0.34056088 -0.059581954 -0.0952527 0.76361424 0.9348681 1.1602972
0.47139442 0.30255955 0.036001567 -0.30238658 0.42676386 0.25458026 -0.31546232 -0.22066438
-0.23130858 0.53668374 0.40960285 0.6925544 0.0011819472 0.13586432 -0.08443117 -0.25089812
-0.1537358 -0.69968486 -0.6216597 -0.8062421 0.40727076 0.15200007 0.08620679 0.97727066
0.6179296 0.10749862 -0.3114243 0.13656206 0.5730641 0.49797425 -0.36567444 0.09878398
0.17689162 0.14150327 0.4360034 0.31380293 -0.01144273 -0.735845 -0.11066427 -0.530748
-0.12504102 0.18422471 0.4447317 -0.26921147 0.43540588 0.15566349 -0.1886382 -0.3602581
0.17393635 -0.092541136 1.0797292 0.42917222 0.06520015 0.05029468 -0.44695452 -0.54709655
0.46803612 -0.06371676 -0.29901084 -0.5354265 0.33974755 0.52032787 -1.1336906 -0.47274414
-0.40644723 -0.013396505 -0.17958285 0.38520464 0.4250806 0.64547557 -0.7279237 0.5005242
-0.058390558 0.46481434 0.37281024 -0.18291396 -0.014204395 -0.11565765 0.23793554 0.3285787
0.41480923 -0.0663689 -0.21574363 0.23759969 -0.3972885 -0.23601753 -0.13180567 -0.41085684
-0.7211667 -0.28238302 -0.21940291 -0.0634268 -0.46940503 -0.54732585 0.8501793 0.48747292
0.67288285 0.04213214 0.83236897 0.9522106 0.22102289 0.3127327 1.4493039 0.2006083
-0.5516795 -0.72361696 0.052899748 -0.03475571 -0.8539019 -0.502396 -0.28698817 -0.7362474
0.25943702 0.7506991 0.87885785 -0.4911604 1.9203225 1.4024768 0.9907484 0.7094531
-0.06450476 -0.24029861 -0.3471368 -0.12089733 -0.0654472 -0.11863535 -0.120254934 0.16435122
-0.2292061 -0.035079326 0.04769038 0.04257771 0.19266 0.07034898 -0.24188882 0.32653695
-0.2846375 -0.09113155 0.1418745 -0.19872393 -0.36509502 0.9774865 1.2181178 0.47812027
0.8736222 2.11396 1.8637972 0.41094998 1.9470602 1.8816609 1.1729045 1.2045308
-0.019897623 -0.4289814 -0.8155051 -0.11978517 -0.3732367 -0.71864796 -0.82788306 -0.1033361
0.0712348 0.6637475 0.44318983 -0.034277588 0.13469373 0.58080363 0.2862933 1.2051966
0.36751363 0.08878847 0.102417514 -0.09895285 -0.2313982 -0.30912337 0.208803 -0.09342914
-0.76717806 0.31095278 0.55459565 -0.40739673 -0.07812204 0.8327066 0.369037 -0.12118457
0.5684203 0.5767253 -0.14903064 0.011226922 -0.025475843 -0.3871558 -0.38391945 0.49662316
0.40315783 0.6302439 0.0076235887 0.07679093 0.5669289 -0.26109564 0.021560993 0.09836553
1.0972729 0.27666804 0.448395 0.8081962 0.2137142 -0.689165 -0.123609796 -0.3750597
-0.12670317 -0.18781051 -0.31406826 -0.5352597 0.13485259 0.1578366 -0.27127066 -0.48266354
00000000: 6f0b dfbe 4aa1 2dbf eb09 1d3e f3ca 243f
00000010: d0f7 cbbe bbbd e9bb e31c 163f c282 983f
00000020: a1a9 a5bd 7c58 0cbf e8ec f9bc 16d7 b5bd
00000030: 9612 96be bce5 92be 45ec 433e 2b92 2b3e
00000040: 77b0 1a3f eb40 023f 869c 653c d433 00bd
00000050: 6233 9b3e a334 c53e 86cb 873e ba45 f03e
00000060: 106a 3cbf 4b50 1bbf cc97 ca3d 8ead 03be
00000070: 651f 6abe 58b1 72be e5c9 0dbe 02ef 8b3e
00000080: f453 803d 2f59 d5be ff5d ae3e 350c 74bd
00000090: d913 c3bd 397c 433f 8453 6f3f 9e84 943f
000000a0: 9c5a f13e 16e9 9a3e 6176 133d 6ad2 9abe
000000b0: cb80 da3e 5858 823e 4784 a1be d8f5 61be
000000c0: 28dc 6cbe 1b64 093f 77b7 d13e 3f4b 313f
000000d0: 91eb 9a3a 0420 0b3e 40ea acbd b875 80be
000000e0: eb6c 1dbe 8c1e 33bf 1725 1fbf e265 4ebf
000000f0: cb85 d03e e8a5 1b3e 2f8d b03d 692e 7a3f
00000100: a230 1e3f 3d28 dc3d 0173 9fbe edd6 0b3e
00000110: 54b4 123f 7bf6 fe3e ae39 bbbe 414f ca3d
00000120: 1423 353e 3ce6 103e d63b df3e c7aa a03e
00000130: 4a7a 3bbc 5760 3cbf f3a3 e2bd 1adf 07bf
00000140: c10a 00be 67a5 3c3e e0b3 e33e 16d6 89be
00000150: 85ed de3e 4066 1f3e 5f2a 41be c073 b8be
00000160: 5f1c 323e 3586 bdbd 9134 8a3f 76bc db3e
00000170: a887 853d cb01 4e3d 39d7 e4be 850e 0cbf
00000180: 6ea2 ef3e ef7d 82bd f317 99be b611 09bf
00000190: 64f3 ad3e 3534 053f c61c 91bf 850b f2be
000001a0: da19 d0be 047d 5bbc 91e4 37be 8b39 c53e
000001b0: 2aa4 d93e e33d 253f 3559 3abf 5b22 003f
000001c0: f02a 6fbd 25fc ed3e fce0 be3e cc4d 3bbe
000001d0: 8db9 68bc ebdd ecbd 60a5 733e 783b a83e
000001e0: e061 d43e 6bec 87bd e6eb 5cbe 554d 733e
000001f0: 6669 cbbe 94ae 71be 11f8 06be d45b d2be
00000200: 619e 38bf 8294 90be 28ab 60be e9e5 81bd
00000210: db55 f0be 8c1d 0cbf 5aa5 593f 0d96 f93e
00000220: 0d42 2c3f c092 2c3d 2216 553f 13c4 733f
00000230: d353 623e 801e a03e ca82 b93f 436c 4d3e
00000240: de3a 0dbf f63e 39bf 68ad 583d 015c 0ebd
00000250: 5199 5abf 069d 00bf 1df0 92be b67a 3cbf
00000260: eed4 843e d12d 403f d4fc 603f 6079 fbbe
00000270: 21cd f53f 5c84 b33f b0a1 7d3f b89e 353f
00000280: 121b 84bd d710 76be eabb b1be 0599 f7bd
00000290: 2e09 86bd 17f7 f2bd 3848 f6bd b04b 283e
000002a0: 01b5 6abe 57af 0fbd fd56 433d f765 2e3d
000002b0: aa48 453e 2013 903d b4b1 77be da2f a73e
000002c0: 02bc 91be 2ea3 babd 8d47 113e 497e 4bbe
000002d0: bced babe 8e3c 7a3f 49eb 9b3f 2ecc f43e
000002e0: b4a5 5f3f 1f4b 0740 e890 ee3f 0968 d23e
000002f0: 4539 f93f 44da f03f bc21 963f 112e 9a3f
00000300: 5700 a3bc 73a3 dbbe f1c4 50bf ed51 f5bd
00000310: e118 bfbe 50f9 37bf 25f0 53bf e1a1 d3bd
00000320: 8de3 913d 5beb 293f c7e9 e23e a866 0cbd
00000330: 27ed 093e 8caf 143f 0995 923e e243 9a3f
00000340: bf2a bc3e bbd6 b53d 46c0 d13d cba7 cabd
00000350: a6f3 6cbe 6b45 9ebe 74d0 553e c757 bfbd
00000360: c865 44bf 3435 9f3e fbf9 0d3f 4e96 d0be
00000370: 73fe 9fbd 422c 553f 6bf2 bc3e 9e2f f8bd
00000380: fe83 113f 45a4 133f 7d9b 18be 20f1 373c
00000390: b7b2 d0bc 4939 c6be 1791 c4be 6445 fe3e
000003a0: b46a ce3e aa57 213f 4ccf f93b 9044 9d3d
000003b0: 4122 113f 54ae 85be aea0 b03c de73 c93d
000003c0: 7073 8c3f 6fa7 8d3e 0894 e53e f2e5 4e3f
000003d0: e5d7 5a3e 1e6d 30bf 2227 fdbd d307 c0be
000003e0: 7abe 01be 6651 40be 8ecd a0be c806 09bf
000003f0: cc16 0a3e eb9f 213e fde3 8abe ad1f f7be

conv1.bias f4 [16]
-0.84699446 0.4120712 0.6307411 -0.36219174 0.0072230073 0.32599446 0.26998147 -0.16395815
-0.3760216 -0.48605663 -0.1477782 0.37325335 -0.082537234 -0.9095029 -0.1753461 1.1979454
00000000: a1d4 58bf fffa d23e 4078 213f 3271 b9be
00000010: faae ec3b bfe8 a63e 033b 8a3e a5e4 27be
00000020: e785 c0be 6adc f8be 2b53 17be 101b bf3e
00000030: 4809 a9bd 2fd5 68bf ee8d 33be 4656 993f

bn1.weight f4 [16]
0.7632096 1.2122252 0.7439831 1.0991595 0.8988962 1.0042208 0.82915175 1.3597606
0.6751774 2.1930711 0.6920169 0.8655036 1.0930212 0.70447946 1.1566228 0.7398815
00000000: b461 433f 322a 9b3f ad75 3e3f 42b1 8c3f
00000010: 101e 663f 4f8a 803f 4a43 543f a30c ae3f
00000020: 6dd8 2c3f 475b 0c40 0528 313f a591 5d3f
00000030: 1ee8 8b3f c458 343f 370c 943f e068 3d3f

bn1.bias f4 [16]
-0.4457746 -0.31403366 -0.28180668 -0.19647537 -0.23141503 -0.18688393 -0.18451495 0.3158099
-0.23236875 0.26890603 -0.6835262 0.44567347 -0.32071292 -0.27094057 -0.21575603 -0.52127004
00000000: 923c e4be 05c9 a0be f748 90be d730 49be
00000010: 10f8 6cbe 805e 3fbe 7df1 3cbe d6b1 a13e
00000020: 13f2 6dbe 0dae 893e 93fb 2ebf 502f e43e
00000030: 7c34 a4be b9b8 8abe 26ef 5cbe f471 05bf

bn1.running_mean f4 [16]
1.0580233 1.7849872 2.0307665 5.4451127 1.3878359 1.4633993 1.8997024 1.5894839
-1.5259455 -2.1293733 -0.08411896 0.03337766 1.1545833 -2.2365165 0.45420063 2.1808093
00000000: 4f6d 873f 767a e43f 14f8 0140 5d3e ae40
00000010: 9ba4 b13f ab50 bb3f 7329 f33f 3574 cb3f
00000020: 2f52 c3bf a747 08c0 9046 acbd 03b7 083d
00000030: 63c9 933f 1623 0fc0 fc8c e83e 6192 0b40

bn1.running_var f4 [16]
0.11714752 0.13463522 0.052297812 0.82335186 0.11668452 0.08388421 0.15401237 0.09637949
0.0701261 0.15149221 0.08039646 0.03635647 0.17381927 0.33375865 0.0722511 0.07337818
00000000: 0aeb ef3d d1dd 093e 3b36 563d 30c7 523f
00000010: 4bf8 ee3d 7ccb ab3d 6bb5 1d3e 9c62 c53d
00000020: 469e 8f3d c620 1b3e e6a6 a43d 86ea 143d
00000030: aefd 313e 6ae2 aa3e 62f8 933d 4d47 963d

conv2.weight f4 [32, 16, 4, 4]
-0.55463785 -0.45840493 0.3808963 0.053412884 0.4677606 -0.27385834 -0.07024434 0.37170845
0.7156144 -0.20085962 -0.0742963 -0.028222304 0.2327462 0.42641154 -0.13878983 -0.029634379
0.43179616 -0.41097304 0.19325529 -0.064612344 0.1799889 0.11447245 0.14093918 -0.08137723
1.1663011 0.09596719 -0.9801831 -0.43781394 0.00032921528 -0.9899352 0.21258503 0.1500317
-0.18731494 0.39482352 -0.15878388 0.099971004 0.4214726 0.37199008 0.06451068 -0.6054486
0.1897531 -0.07399517 -0.5822246 0.47447002 0.1623538 -0.4136088 0.09333979 -0.44217438
-0.2746916 -0.19757342 0.022543112 0.1345346 0.111612305 0.05540768 -0.26957503 -0.11524724
-0.3110177 -0.7207042 -0.257388 -0.08200885 0.38268012 -0.4547009 -0.36924982 -0.2966424
-0.36732656 -0.2207488 0.08670019 0.054519646 -0.11848185 -0.22479592 -0.11142626 -0.022859298
0.26564467 0.11609391 -0.28352633 0.45512637 0.24914604 0.63848925 0.15112945 0.092283525
-0.17672086 -0.1627792 -0.12176235 0.16291289 0.3336329 -0.3613935 -0.43289092 -0.3632035
-0.1626303 0.07873124 0.3960235 0.36565563 -0.10312304 -0.10359433 0.031271674 -0.22714055
-0.70217085 -0.35732773 -0.14657108 -0.087980896 -0.21187332 0.19101717 -0.34721693 -0.1502983
1.0118529 0.15055707 -0.07441197 0.22634311 0.24218786 -0.04838677 -0.122328 0.15427023
0.0048942813 0.62797046 0.33811983 0.2242759 -0.38878146 0.38549885 0.28633702 0.063779786
0.010739734 -0.64516485 -0.76151216 -0.38965058 -0.08285746 -0.42142388 -0.09195235 -0.41100332
0.27200523 0.14043865 -0.15955465 0.04234486 -0.5009639 0.12562767 0.07971967 -0.12607698
-0.16935064 -0.09784733 -0.26197392 -0.6132329 0.4557641 -0.38151273 -0.19672655 0.3318575
-0.121688694 0.2151101 0.4794314 -0.02197027 -0.3718933 0.27484015 -0.18324418 0.41318354
0.8498593 -0.4865181 -0.6523819 -0.45242345 0.55302346 -0.12747127 -0.29764202 -0.21461356
-0.2362221 0.4256792 -0.15903983 0.17244746 0.22847778 0.15782695 -0.48250997 0.06727548
0.2547455 0.17920706 -0.4222611 -0.65743726 -0.096389025 0.047753792 0.1400933 0.21056464
-0.3313163 0.1859317 0.18300997 -0.44979346 -0.52478313 0.3432617 0.47910562 0.20548137
0.5867019 -0.04901689 0.13526265 0.58568954 0.2553796 -0.5154877 -0.5892483 -0.46037778
0.14574866 0.45296535 -0.31505147 0.26511753 -0.39989978 -0.7094874 -0.18137348 -0.39141086
-0.023667756 -0.5354128 0.027564388 -0.040650968 0.020472474 0.48151612 0.5065965 0.7807574
0.118184105 -0.33300284 -0.52758574 -1.1789116 0.13458838 -0.3303953 -0.8738047 -0.514244
0.19903684 -0.29822555 -0.40336487 -0.2873464 0.32443768 -0.30197617 -0.6374611 -0.06757435
-0.07231289 0.24440879 0.7195747 -1.1147336 0.6951576 -0.32397997 -0.020447912 -0.2553462
0.9329915 -0.49546346 -0.2218978 0.5418672 -0.20359209 -0.3107931 -0.22344448 0.6563774
-0.72326523 -0.17657708 -0.20434712 -0.19111644 -0.80716676 -0.0777429 0.45277688 -0.034862984
0.29445764 0.15769865 0.26821017 -0.22960953 0.0888454 -0.474143 -0.0517351 -0.050287437
00000000: bffc 0dbf 0db4 eabe d704 c33e 78c7 5a3d
00000010: 517e ef3e 2937 8cbe 44dc 8fbd 9250 be3e
00000020: 8132 373f 25ae 4dbe a928 98bd 7632 e7bc
00000030: 0555 6e3e 9d52 da3e ec1e 0ebe ccc3 f2bc
00000040: 6314 dd3e 0f6b d2be b7e4 453e 7a53 84bd
00000050: 034f 383e 8870 ea3d 5c52 103e 1ba9 a6bd
00000060: 5b49 953f 728a c43d 48ed 7abf 2629 e0be
00000070: 879a ac39 656c 7dbf e4af 593e e9a1 193e
00000080: 7dcf 3fbe 4f26 ca3e 3e98 22be 99bd cc3d
00000090: 42cb d73e 7c75 be3e 2d1e 843d aefe 1abf
000000a0: a34e 423e c88a 97bd ac0c 15bf bced f23e
000000b0: 1340 263e 88c4 d3be ef28 bf3d ae64 e2be
000000c0: 61a4 8cbe b050 4abe 55ac b83c 70c3 093e
000000d0: fe94 e43d 2af3 623d bd05 8abe bf06 ecbd
000000e0: b63d 9fbe 1280 38bf 5cc8 83be 42f4 a7bd
000000f0: a6ee c33e 8ece e8be 500e bdbe 83e1 97be
00000100: 3a12 bcbe f90b 62be df8f b13d fe4f 5f3d
00000110: 9da6 f2bd e730 66be 7333 e4bd 6c43 bbbc
00000120: 9402 883e a5c2 ed3d 5d2a 91be 5306 e93e
00000130: 2420 7f3e 0874 233f aec1 1a3e 25ff bc3d
00000140: 50f6 34be 97af 26be 8a5e f9bd a3d2 263e
00000150: eed1 aa3e 9208 b9be e1a3 ddbe cff5 b9be
00000160: 8f88 26be d83d a13d 98c3 ca3e 3737 bb3e
00000170: 2c32 d3bd 4429 d4bd ba16 003d 8897 68be
00000180: 78c1 33bf a9f3 b6be bb16 16be 542f b4bd
00000190: 52f5 58be 019a 433e 6bc6 b1be cce7 19be
000001a0: 6584 813f a22b 1a3e 4e65 98bd 7dc6 673e
000001b0: 1800 783e 3531 46bd 1a87 fabd 04f9 1d3e
000001c0: 3560 a03b acc2 203f 0b1e ad3e 95a8 653e
000001d0: 5d0e c7be 1b60 c53e c49a 923e fa9e 823d
000001e0: b6f5 2f3c 8629 25bf 76f2 42bf 4880 c7be
000001f0: 2cb1 a9bd dfc4 d7be 8451 bcbd 076f d2be
00000200: 4544 8b3e 26cf 0f3e 4b62 23be ce71 2d3d
00000210: 2c3f 00bf 8aa4 003e 1144 a33d 531a 01be
00000220: 416a 2dbe 2e64 c8bd 7221 86be d5fc 1cbf
00000230: ea59 e93e a355 c3be af72 49be 3ae9 a93e
00000240: ec37 f9bd d245 5c3e 0878 f53e fffa b3bc
00000250: cc68 bebe d9b7 8c3e 5da4 3bbe cb8c d33e
00000260: 6190 593f e718 f9be 8002 27bf 0ca4 e7be
00000270: f292 0d3f d487 02be 8964 98be a8c3 5bbe
00000280: 35e4 71be a0f2 d93e 56db 22be 1196 303e
00000290: 14f6 693e 639d 213e 8c0b f7be bac7 893d
000002a0: 016e 823e 0e82 373e 9b32 d8be cf4d 28bf
000002b0: 9c67 c5bd 7b99 433d 9e74 0f3e 429e 573e
000002c0: 4aa2 a9be e164 3e3e f766 3b3e 544b e6be
000002d0: 3058 06bf ffbf af3e 554d f53e b569 523e
000002e0: 1932 163f efc5 48bd 4b82 0a3e c0ef 153f
000002f0: 1dc1 823e 00f7 03bf fad8 16bf a3b6 ebbe
00000300: 233f 153e 13eb e73e 6d4e a1be 7cbd 873e
00000310: aabf ccbe f7a0 35bf f8b9 39be 0167 c8be
00000320: e2e2 c1bc d010 09bf b6ce e13c a181 26bd
00000330: e4b5 a73c 4889 f63e 4fb0 013f b8df 473f
00000340: 820a f23d 597f aabe dc0f 07bf 93e6 96bf
00000350: 89d1 093e 9329 a9be aab1 5fbf 7fa5 03bf
00000360: 50d0 4b3e 05b1 98be d785 cebe 111f 93be
00000370: b21c a63e 9f9c 9abe a730 23bf 6c64 8abd
00000380: c818 94bd 4c46 7a3e 0c36 383f 97af 8ebf
00000390: d9f5 313f b4e0 a5be 6182 a7bc bdbc 82be
000003a0: 88d8 6e3f 63ad fdbe 2d39 63be cfb7 0a3f
000003b0: 727a 50be 4620 9fbe a1ce 64be 5908 283f
000003c0: e927 39bf 9fd0 34be 5f40 51be 07b4 43be
000003d0: 7ba2 4ebf ab37 9fbd 5fd2 e73e 7dcc 0ebd
000003e0: 27c3 963e c17b 213e d852 893e c31e 6bbe
000003f0: 94f4 b53d dfc2 f2be 2fe8 53bd 33fa 4dbd

conv2.bias f4 [32]
0.46685264 0.13255663 0.10422623 -0.05070958 -0.3198264 0.0057481686 -0.16592106 -0.4905957
-0.12819745 -0.20344345 -0.34293956 -0.40421063 -0.19433898 -0.09317487 0.17363854 0.3499905
-0.45429108 0.10585301 0.07803726 -0.23452598 0.11427793 -0.6372253 0.05680971 0.19071828
-0.3188767 0.7157828 0.15612192 -0.31784624 -0.44340375 0.055242606 -0.79369 0.038832773
00000000: 4f07 ef3e edbc 073e 9074 d53d d9b4 4fbd
00000010: 49c0 a3be 225b bc3b 36e7 29be 5c2f fbbe
00000020: 3146 03be 7b53 50be c695 afbe b2f4 cebe
00000030: cc00 47be 77d2 bebd 4dce 313e f431 b33e
00000040: d798 e8be 77c9 d83d 00d2 9f3d 9427 70be
00000050: 8c0a ea3d 3221 23bf 4cb1 683d a74b 433e
00000060: cf43 a3be 8b3d 373f 6dde 1f3e bebc a2be
00000070: d105 e3be 1246 623d 452f 4bbf 1d0f 1f3d

bn2.weight f4 [32]
1.0248486 1.2043363 0.8951205 1.2253299 1.3684103 1.1246353 0.91767335 0.91343975
1.1890386 0.995006 1.196254 1.2136354 0.9549703 1.2009335 0.91690415 1.2939601
1.0666871 1.0529877 1.0241985 0.90336084 1.2269398 0.8609289 1.0393525 0.8809339
0.80034643 0.8913881 0.89262813 1.1159805 1.171129 1.1772958 0.9209314 1.0181143
00000000: 3d2e 833f b127 9a3f 9e26 653f 9cd7 9c3f
00000010: 1228 af3f 0df4 8f3f a4ec 6a3f 30d7 693f
00000020: 6b32 983f b7b8 7e3f da1e 993f 6858 9b3f
00000030: ef78 743f 30b8 993f 3bba 6a3f 7ca0 a53f
00000040: 3489 883f 4dc8 863f f018 833f a842 673f
00000050: 5d0c 9d3f d665 5c3f 8109 853f e284 613f
00000060: 81e3 4c3f 0332 643f 4783 643f 73d8 8e3f
00000070: 8ee7 953f a1b1 963f 29c2 6b3f 9251 823f

bn2.bias f4 [32]
-0.12057787 -0.33081198 -0.2904543 -0.07738732 -0.17078695 -0.537398 0.0659503 -0.16904013
-0.24417298 -0.37795946 -0.5600179 -0.43081084 -0.31703746 -0.771559 -0.34616914 -0.3831375
-0.2876008 -0.19874085 -0.37822264 -0.5018339 -0.22313893 0.1423253 -0.3333849 -0.54446656
-0.36398926 -0.19562921 -0.16844842 -0.33330047 0.015649576 -0.13870452 -0.37016916 -0.14707094
00000000: 88f1 f6bd 3060 a9be 6db6 94be 3e7d 9ebd
00000010: c6e2 2ebe ea92 09bf f310 873d db18 2dbe
00000020: 7b08 7abe e783 c1be 555d 0fbf 3d93 dcbe
00000030: bc52 a2be e484 45bf 153d b1be 992a c4be
00000040: 6940 93be b982 4bbe 66a6 c1be 3078 00bf
00000050: 887e 64be b9bd 113e 6db1 aabe 2962 0bbf
00000060: cd5c babe 0653 48be be7d 2cbe 5ca6 aabe
00000070: 8a33 803c 8f08 0ebe d086 bdbe c499 16be

bn2.running_mean f4 [32]
-1.1290253 -1.9337171 -0.65419096 -3.0220928 -1.7604675 -1.5765417 -1.9479547 -0.62871516
-1.3154261 -1.6986821 -2.2058675 -2.2347372 -2.3568995 -1.4368925 -0.41962323 -1.5369393
-2.3674684 -0.63247055 -0.7682088 -1.0512236 -0.92251056 -0.928612 -2.569989 0.13883463
-0.21911392 -0.70873 -1.4541692 -1.9461633 -1.3976353 -2.5861397 1.209236 -1.3170785
00000000: e783 90bf 0b84 f7bf 0f79 27bf f869 41c0
00000010: 0057 e1bf 1ecc c9bf 9456 f9bf 7af3 20bf
00000020: e25f a8bf 6a6e d9bf ef2c 0dc0 ef05 0fc0
00000030: 71d7 16c0 18ec b7bf dbd8 d6be 6dba c4bf
00000040: 9a84 17c0 97e9 21bf 55a9 44bf 7f8e 86bf
00000050: a729 6cbf 84b9 6dbf b37a 24c0 aa2a 0e3e
00000060: 665f 60be 546f 35bf 3722 babf e11b f9bf
00000070: b7e5 b2bf 5083 25c0 3fc8 9a3f 0796 a8bf

bn2.running_var f4 [32]
4.8813696 5.5871058 4.4641027 7.507629 5.641015 5.5184555 5.1680903 6.456469
8.305935 6.0943627 6.810043 6.0326977 4.8724904 4.1768374 5.2644196 6.5051093
5.9492936 6.979452 5.3698254 5.1925273 5.854327 5.6591673 7.2395077 5.298742
6.3128858 5.6943192 4.7062416 8.409739 6.0163736 9.646466 7.7162037 5.283756
00000000: 2e34 9c40 92c9 b240 eed9 8e40 7f3e f040
00000010: 3283 b440 3097 b040 ff60 a540 659b ce40
00000020: 1ce5 0441 0505 c340 dfeb d940 dc0b c140
00000030: 71eb 9b40 a7a8 8540 2076 a840 db29 d040
00000040: 9d60 be40 ac57 df40 9cd5 ab40 2f29 a640
00000050: a656 bb40 e617 b540 0caa e740 4b8f a940
00000060: 2903 ca40 dd37 b640 8899 9640 4a8e 0641
00000070: 2286 c040 ed57 1a41 24eb f640 8714 a940

conv3.weight f4 [64, 32, 4, 4]
0.11337682 0.10974048 -0.0006825609 0.49873877 -0.17387319 -0.37979686 0.03587421 0.12731855
0.23371987 -0.21617348 0.5027072 -0.7362184 -0.33293518 0.12825507 -0.47188047 0.11878035
-0.35693452 0.36541575 0.541666 0.7704948 0.23444317 -0.12957571 0.9517827 -0.089089274
0.3488186 0.18465728 0.14576858 0.5572428 -0.63622385 -0.03861048 -0.76765424 0.32866758
0.027688058 0.11417542 0.35128832 0.20095049 0.25175276 -0.76409215 0.026217803 0.17250662
-0.08475553 0.08952384 -0.20616736 -0.37741074 0.1895806 0.06516983 0.7192122 0.84141326
0.4250904 0.5642562 0.30435365 0.22636762 -0.36582527 0.72487307 0.27716932 -0.26902655
-0.6469265 -0.46247458 0.24194147 0.064117596 0.050632436 0.1857315 0.2944986 0.36380342
-0.0265335 0.044114146 0.06135543 -0.25347224 -0.17237069 0.41315532 -0.46962693 0.575077
-0.29434818 -0.16456297 0.28720143 0.035965953 0.5859146 0.31411728 0.2690307 -0.17696282
-0.21990159 -0.5781301 0.28861064 0.61153096 -0.15758708 -0.5828569 -0.45026335 -0.3806729
-0.31140354 -0.5102604 0.45512074 0.08752568 -0.24490865 -0.5166127 -0.081140056 0.02117892
0.29120484 0.1387533 -0.37741292 -0.36798137 -0.69275343 -0.13819912 -0.31667522 0.08749762
0.37025735 0.7548961 -0.17201191 0.05431028 -0.28063014 -0.3790304 -0.2731622 -0.1973597
-0.24328256 0.123367175 0.017798042 -0.04878746 -0.36283606 0.5632988 -0.18468639 -0.14874855
-0.23477615 0.13984935 -0.0869208 -0.26692766 0.5596927 0.7446332 0.10650511 0.35516712
0.18635368 -0.9532241 -0.51407087 -0.19235586 -0.09583476 0.11110566 -0.4887704 -0.036481444
0.06521394 0.19240738 -0.00084065815 0.1590229 0.52812517 -0.30719155 0.8399559 0.389884
0.8774531 0.36890927 0.1317355 -0.02985733 -0.3034765 -0.4582343 -0.787738 0.8699727
-0.11977089 0.48827907 0.51397455 0.12703876 -0.14633022 0.18001932 0.019034866 -0.26422518
0.09369998 -0.021552471 0.41864607 0.40367442 -0.5787021 0.41678676 -0.07631186 -0.37019464
-0.4253113 -0.055172183 0.15081938 0.17552918 -0.2014653 0.2290797 -0.08572643 0.57298017
-0.27978408 0.57297015 -0.1679106 0.026532555 -0.2088726 -0.471861 -0.24619836 -0.6268483
0.54994726 0.018114937 0.3953525 0.1261173 -0.13577197 -0.28211313 -0.27802795 0.4437321
-0.61045307 0.44076434 0.14440116 -0.0511337 0.06604252 -0.13650592 -0.25716552 0.11563006
0.48873127 -0.7773935 -0.25057098 0.43981752 0.007933577 0.2159819 -0.4543885 -0.21939008
0.5493979 0.25086492 -0.28622863 -0.56486905 -1.1221197 -0.30052108 -0.34070468 -0.19075611
0.34568328 0.054093074 0.28370342 -0.64973754 -0.2853666 -0.906975 -0.46592778 -0.3567412
0.28124547 0.26533398 0.475927 0.107756324 0.014595526 -0.6473145 0.037194252 0.08723712
-0.10447627 -0.2621471 -0.48800257 0.2119533 0.043412916 0.25442985 0.34838647 0.14391086
0.23873743 0.25813878 -0.057429336 -0.25129285 -0.20395781 0.5409435 -0.19152659 -0.25822294
-0.2583288 -0.52865744 -0.18200336 -0.37103483 0.21520995 0.49982852 0.35479712 0.71468854
00000000: 1b32 e83d 9ebf e03d e3ed 32ba b05a ff3e
00000010: d00b 32be bc74 c2be d6f0 123d cb5f 023e
00000020: 4354 6f3e 955c 5dbe 6bb1 003f cf78 3cbf
00000030: 7b76 aabe 4c55 033e 519a f1be 1d43 f33d
00000040: 1fc0 b6be c617 bb3e 9faa 0a3f 263f 453f
00000050: df11 703e 7faf 04be 08a8 733f 7074 b6bd
00000060: 5a98 b23e cc16 3d3e 5c44 153e 77a7 0e3f
00000070: 91df 22bf 0626 1ebd fd84 44bf 1e47 a83e
00000080: 11d2 e23c cdd4 e93d 10dc b33e f7c5 4d3e
00000090: bde5 803e 8b9b 43bf b8c6 d63c 93a5 303e
000000a0: 4f94 adbd 4658 b73d 891d 53be fb3b c1be
000000b0: 6b21 423e c377 853d 4a1e 383f dc66 573f
000000c0: 73a5 d93e 1873 103f 3ed4 9b3e eacc 673e
000000d0: 734d bbbe 4891 393f 23e9 8d3e d9bd 89be
000000e0: fa9c 25bf 78c9 ecbe 81bf 773e 1650 833d
000000f0: f563 4f3d 6630 3e3e 85c8 963e 7144 ba3e
00000100: c85c d9bc 09b1 343d d54f 7b3d 1dc7 81be
00000110: f181 30be 1889 d33e f172 f0be 3f38 133f
00000120: ceb4 96be 3283 28be 110c 933e 0951 133d
00000130: 80fe 153f fbd3 a03e 64be 893e be35 35be
00000140: e22d 61be 5600 14bf c6c4 933e 4b8d 1c3f
00000150: 825e 21be 1c36 15bf eb88 e6be 8fe7 c2be
00000160: 4970 9fbe 6da0 02bf 9605 e93e aa40 b33d
00000170: 55c9 7abe bb40 04bf c22c a6bd 6a7f ad3c
00000180: cd18 953e 5815 0e3e 443c c1be 0e68 bcbe
00000190: 4a58 31bf 1284 0dbe 4123 a2be f431 b33d
000001a0: 5f92 bd3e df40 413f e423 30be 7574 5e3d
000001b0: c1ae 8fbe 4610 c2be eadb 8bbe a918 4abe
000001c0: 101f 79be eea7 fc3d 33cd 913c 5cd5 47bd
000001d0: a6c5 b9be 5a34 103f 6e1e 3dbe 8a51 18be
000001e0: 2969 70be ab34 0f3e 8803 b2bd beaa 88be
000001f0: 0548 0f3f 48a0 3e3f 5a1f da3d 77d8 b53e
00000200: 80d3 3e3e 7f06 74bf 269a 03bf eff8 44be
00000210: 0445 c4bd 5d8b e33d 1d40 fabe 916d 15bd
00000220: e38e 853d 7106 453e 9d5f 5cba e6d6 223e
00000230: 3633 073f 3648 9dbe 5a07 573f e09e c73e
00000240: c4a0 603f ade1 bc3e ace5 063e 5c97 f4bc
00000250: 4661 9bbe b09d eabe 33a9 49bf 88b6 5e3f
00000260: 714a f5bd b7ff f93e d693 033f 7316 023e
00000270: 97d7 15be fc56 383e 02ef 9b3c 8648 87be
00000280: c6e5 bf3d cf8e b0bc c758 d63e 6aae ce3e
00000290: d225 14bf 1365 d53e 6449 9cbd 278a bdbe
000002a0: 67c2 d9be 3afc 61bd 6570 1a3e ecbd 333e
000002b0: eb4c 4ebe de93 6a3e 5791 afbd d4ae 123f
000002c0: dc3f 8fbe 2cae 123f c2f0 2bbe cd5a d93c
000002d0: b3e2 55be c497 f1be 6c1b 7cbe 2179 20bf
000002e0: 58c9 0c3f c765 943c a56b ca3e e524 013e
000002f0: cf07 0bbe 2271 90be ae59 8ebe db30 e33e
00000300: a746 1cbf ddab e13e e6dd 133e 9271 51bd
00000310: 4d41 873d 35c8 0bbe 33ab 83be 74cf ec3d
00000320: fc3a fa3e 4303 47bf d74a 80be c32f e13e
00000330: d5fb 013c 5c2a 5d3e 9ca5 e8be cba7 60be
00000340: 57a5 0c3f 5e71 803e 8f8c 92be 429b 10bf
00000350: 9ea1 8fbf e6dd 99be d870 aebe 9255 43be
00000360: 66fd b03e b390 5d3d 9341 913e 3355 26bf
00000370: 921b 92be 832f 68bf 168e eebe c8a6 b6be
00000380: 68ff 8f3e dbd9 873e b4ac f33e 59af dc3d
00000390: 1322 6f3c 67b6 25bf 0059 183d 60a9 b23d
000003a0: a8f7 d5bd 2538 86be 79db f9be 490a 593e
000003b0: bed1 313d a144 823e b65f b23e 5e5d 133e
000003c0: 9677 743e c42a 843e 063b 6bbd 75a9 80be
000003d0: 51da 50be 467b 0a3f 8c1f 44be cc35 84be
000003e0: ac43 84be 1856 07bf 175f 3abe 47f8 bdbe
000003f0: ff5f 5c3e 86e9 ff3e f8a7 b53e d4f5 363f

conv3.bias f4 [64]
0.0069842734 -0.0120666325 -0.14475915 0.028086489 -0.06548 0.026606098 -0.017733194 -0.045556378
0.061805744 0.1051018 0.13983999 -0.2809085 -0.26957557 0.01565007 0.032416634 0.2734821
0.14039183 0.056836057 0.07526056 -0.008125944 -0.01974727 -0.0032416058 -0.2613568 -0.036242824
0.17678553 0.08699305 0.028544012 0.13217258 -0.037794784 0.044361863 0.06316389 -0.0563022
-0.1764893 0.009776061 -0.10508509 -0.14054109 0.015426604 -0.025261357 -0.09257952 0.11421381
0.03722156 -0.0025291324 0.009768493 -0.06698198 0.27581304 -0.06817705 0.07906109 -0.30902553
0.0019679011 0.05903382 0.08290099 0.097699314 -0.29874295 0.044317257 -0.1588918 0.20974307
0.17854486 0.07806796 -0.042242642 0.1490323 -0.11786027 -0.015669398 -0.14730842 0.118644685
00000000: 55dc e43b 20b3 45bc be3b 14be a315 e63c
00000010: 611a 86bd 08f5 d93c 3445 91bc 5399 3abd
00000020: 0528 7d3d 9d3f d73d 3732 0f3e 3dd3 8fbe
00000030: cf05 8abe 9334 803c 4ec7 043d d905 8c3e
00000040: e0c2 0f3e edcc 683d 3522 9a3d ae22 05bc
00000050: 07c5 a1bc 1f71 54bb 8fd0 85be 5b73 14bd
00000060: 4407 353e 6a29 b23d 22d5 e93c 4058 073e
00000070: b4ce 1abd c9b4 353d 125c 813d 239d 66bd
00000080: 9cb9 34be c62b 203c da36 d7bd 01ea 0fbe
00000090: debf 7c3c e8f0 cebc 559a bdbd eee8 e93d
000000a0: a275 183d cdbf 25bb 070c 203c d92d 89bd
000000b0: 5e37 8d3e 69a0 8bbd c8ea a13d 9838 9ebe
000000c0: e7f7 003b 72cd 713d ffc7 a93d 9416 c83d
000000d0: d6f4 98be 0386 353d 88b4 22be e3c6 563e
000000e0: 77d4 363e 18e2 9f3d 9f06 2dbd ec9b 183e
000000f0: ba60 f1bd 1c5d 80bc 05d8 16be fcfb f23d

bn3.weight f4 [64]
0.89979655 1.1251978 1.2382795 1.271361 1.2019261 0.8631842 1.058399 1.2929442
1.164187 1.0355525 1.0871755 0.8502393 1.0385431 1.2245084 1.2171205 1.0871433
1.146564 0.9910173 1.0023355 1.2025856 1.0684167 1.1788887 1.1482922 1.478776
1.0704046 1.1467432 1.1322327 1.2072806 1.088684 0.93535894 0.9412299 1.1771216
1.0808672 1.1564742 0.9863371 1.1421287 1.2959207 1.1694968 1.1792166 1.0737314
0.74945056 1.0150721 1.2379522 1.0056778 1.2643359 1.0826124 1.0001743 1.2573227
0.9579461 1.0004076 0.9073289 0.967989 0.8428942 1.1660212 1.1019106 0.9668213
1.1782447 1.030705 0.89181995 0.93684363 1.0095518 1.0791341 0.8659577 1.1262451
00000000: 1159 663f 7b06 903f f17f 9e3f f5bb a23f
00000010: b7d8 993f a4f9 5c3f 9e79 873f 327f a53f
00000020: 1404 953f fc8c 843f 9128 8b3f 48a9 593f
00000030: fbee 843f b1bc 9c3f 9bca 9b3f 8327 8b3f
00000040: 9cc2 923f 4fb3 7d3f 884c 803f 53ee 993f
00000050: e1c1 883f d3e5 963f 3dfb 923f 8848 bd3f
00000060: 0503 893f 7bc8 923f 00ed 903f 2c88 9a3f
00000070: ff59 8b3f af73 6f3f 71f4 703f ecab 963f
00000080: db59 8a3f 5907 943f 9780 7c3f 4631 923f
00000090: bbe0 a53f 12b2 953f 92f0 963f 0870 893f
000000a0: fedb 3f3f e2ed 813f 3875 9e3f 0dba 803f
000000b0: c2d5 a13f 0b93 8a3f b605 803f f3ef a03f
000000c0: f53b 753f 5b0d 803f b546 683f 21ce 773f
000000d0: eac7 573f 2f40 953f 680b 8d3f 9a81 773f
000000e0: b9d0 963f 24ee 833f 504e 643f fcd4 6f3f
000000f0: fe38 813f 1121 8a3f 67af 5d3f cd28 903f

bn3.bias f4 [64]
-0.17559052 -0.55434525 -0.36813438 -0.47865355 -0.5297864 -0.11161134 -0.46862572 -0.42474672
-0.69722784 -0.29133353 -0.59140503 -0.1971411 -0.18874964 -0.5268266 -0.59351104 0.10584134
-0.19088279 -0.43861866 -0.3661587 -0.45238972 -0.5683299 -0.3242856 -0.2149081 -0.024028568
-0.24986048 -0.5611597 -0.43655962 -0.4849248 -0.450115 -0.31689304 -0.22746545 -0.2137648
-0.24208915 -0.6955736 -0.21775228 -0.4488782 -0.33356875 -0.37150145 -0.18896078 -0.41072568
-0.1807786 -0.44016087 -0.41819304 -0.22617935 -0.3344542 -0.52881885 -0.43346903 -0.6012124
-0.25043452 -0.022351107 -0.07744573 -0.1292497 -0.2020936 -0.12760925 -0.47353885 0.070088536
-0.52687573 -0.34973288 -0.33726236 -0.324805 -0.36383814 -0.33963642 -0.24328035 -0.3455079
00000000: 00ce 33be 92e9 0dbf 1c7c bcbe 1412 f5be
00000010: 15a0 07bf 7c94 e4bd b6ef efbe 6778 d9be
00000020: 867d 32bf ab29 95be 5266 17bf 5bdf 49be
00000030: 9647 41be 1cde 06bf 57f0 17bf 58c3 d83d
00000040: c776 43be a092 e0be 2779 bbbe a09f e7be
00000050: 117e 11bf c308 a6be de10 5cbe 8fd7 c4bc
00000060: 6ddb 7fbe 29a8 0fbf be84 dfbe 1048 f8be
00000070: 7975 e6be ce3f a2be b4ec 68be 29e5 5abe
00000080: 38e6 77be 1d11 32bf 74fa 5ebe 5dd3 e5be
00000090: 86c9 aabe 7035 bebe ef7e 41be a34a d2be
000000a0: 061e 39be c45c e1be 661d d6be 8f9b 67be
000000b0: 953d abbe ac60 07bf a7ef ddbe 0ee9 19bf
000000c0: f438 80be ab19 b7bc de9b 9ebd 095a 04be
000000d0: a0f1 4ebe 00ac 02be af73 f2be 948a 8f3d
000000e0: 54e1 06bf 3010 b3be a7ad acbe d74c a6be
000000f0: fe48 babe d3e4 adbe 7c1e 79be 69e6 b0be

bn3.running_mean f4 [64]
-0.27433294 -1.9862856 -7.6328864 -5.5152664 -3.6166372 -2.6243212 -3.6026955 -4.882039
-2.5162432 -2.6337554 -5.7574186 1.7645035 -2.4872868 -2.9978251 -2.5189762 -6.009341
-7.251854 -1.8856915 3.2009084 -1.682982 -1.3526274 -3.7307982 -7.6005774 0.3372563
-2.974387 -4.8017864 -5.604541 -5.0329533 -5.103761 -2.529539 -0.79174507 -6.2836733
4.712298 -4.6887107 -4.6338124 -3.8981295 -5.9819674 -3.5097044 -6.4266768 -3.8464525
5.0091276 -4.277991 -7.4366007 2.2179215 -6.4026256 -3.7588863 -3.2467592 -3.257632
-5.606996 -5.186833 -4.343313 -5.558705 -1.0250393 -2.624707 -5.6595907 -3.5545495
-4.3411956 -2.6279075 -1.9781332 -0.8579562 -0.33733103 0.8557394 -4.281182 -3.225059
00000000: 5e75 8cbe 9b3e febf 9b40 f4c0 107d b0c0
00000010: fc76 67c0 e1f4 27c0 9092 66c0 aa39 9cc0
00000020: 210a 21c0 738f 28c0 c63c b8c0 40db e13f
00000030: b52f 1fc0 5edc 3fc0 e836 21c0 854c c0c0
00000040: 300f e8c0 575e f1bf afdb 4c40 f46b d7bf
00000050: e522 adbf 66c5 6ec0 ee37 f3c0 dcac ac3e
00000060: 5b5c 3ec0 3ca8 99c0 6658 b3c0 f40d a1c0
00000070: 0352 a3c0 f8e3 21c0 ceaf 4abf da13 c9c0
00000080: 25cb 9640 eb09 96c0 3148 94c0 f47a 79c0
00000090: 476c bfc0 ff9e 60c0 56a7 cdc0 472c 76c0
000000a0: c64a a040 4de5 88c0 a2f8 edc0 6df2 0d40
000000b0: 4fe2 ccc0 9891 70c0 e7ca 4fc0 0b7d 50c0
000000c0: 836c b3c0 89fa a5c0 6cfc 8ac0 e9e0 b1c0
000000d0: 7d34 83bf 33fb 27c0 5e1b b5c0 bd7d 63c0
000000e0: 13eb 8ac0 a32f 28c0 7833 fdbf 04a3 5bbf
000000f0: a7b6 acbe bd11 5b3f 71ff 88c0 5e67 4ec0

bn3.running_var f4 [64]
20.022997 21.082727 35.088017 20.700811 27.006535 21.078873 22.772678 24.761175
22.731964 25.484056 23.08979 19.950382 23.233751 24.560585 23.712238 32.99958
34.512024 28.219315 22.254337 26.790283 26.233364 24.874403 34.945877 73.85523
25.329292 24.265488 18.58441 31.326086 22.273693 20.265429 18.338665 31.627285
36.439804 24.904358 21.952944 24.170343 41.72708 31.721651 26.808119 20.370989
20.742985 18.55729 25.451412 34.619526 36.571358 21.234539 25.089922 21.35176
17.21607 26.841642 27.577091 24.648798 19.448029 31.413605 22.154924 33.37955
22.401524 20.97491 21.39708 17.775162 21.628817 35.038254 22.33024 34.229115
00000000: 192f a041 6da9 a841 215a 0c42 439b a541
00000010: 620d d841 88a1 a841 722e b641 e316 c641
00000020: 10db b541 59df cb41 e4b7 b841 629a 9f41
00000030: b9de b941 147c c441 aab2 bd41 92ff 0342
00000040: 500c 0a42 28c1 e141 e208 b241 8052 d641
00000050: eedd d141 c7fe c641 94c8 0b42 e1b5 9342
00000060: 64a2 ca41 b81f c241 dfac 9441 d39b fa41
00000070: 8630 b241 991f a241 96b5 9241 ae04 fd41
00000080: 5cc2 1142 203c c741 a19f af41 dd5c c141
00000090: 88e8 2642 f1c5 fd41 0777 d641 c9f7 a241
000000a0: a2f1 a541 5475 9441 7e9c cb41 657a 0a42
000000b0: 1249 1242 56e0 a941 29b8 c841 68d0 aa41
000000c0: 83ba 8941 afbb d641 e29d dc41 bd30 c541
000000d0: 9095 9b41 104f fb41 493d b141 a984 0542
000000e0: 5236 b341 9ecc a741 382d ab41 8833 8e41
000000f0: d107 ad41 2c27 0c42 55a4 b241 9dea 0842

conv4.weight f4 [64, 64, 4, 4]
-0.25379062 -0.686848 -0.07578696 0.11549357 0.24117287 -0.6676468 -0.024509022 -0.10309657
-0.7910719 0.77260387 0.0044291294 0.4192718 0.1279124 0.13914743 -0.6115037 0.26024273
0.3264346 -0.05120755 -0.4863537 0.09049413 -0.038084723 -0.966447 -0.32014742 -0.740701
-0.011927228 -0.63113195 0.0986492 -0.23507746 -0.079365514 -0.17606005 0.18305151 0.36248517
0.7575197 0.38180876 0.07930981 0.30623087 0.2703264 0.10534597 0.33492053 0.5334695
0.3112946 -0.24229446 0.14276859 -0.41322634 0.36135203 0.37384313 0.46820495 0.120000094
-0.7789045 -0.11393945 0.089094505 1.1536353 0.05385805 0.009702084 0.88263124 -0.81906366
-0.46527806 -0.21878216 0.29080647 -0.0056495816 0.2798037 -0.01668302 0.15854196 -0.047364816
0.26227948 -0.15696615 -0.5368643 -0.29778424 0.29916808 -0.53372043 -0.46454525 0.16501679
0.185673 -0.50491565 -0.42651552 0.35132003 0.5913282 -0.17564276 -0.57299674 0.48814243
-0.9167724 -0.44887823 -0.012787705 -0.30283457 -0.29408485 -0.7626961 0.34898537 0.02574624
0.5287724 -0.31746143 -0.6178205 -0.364331 -0.09128876 0.43795916 0.114390485 -0.40177566
-0.29127797 0.5210855 0.19597405 0.6633752 -0.8390989 -0.89999294 -0.54923105 0.22641227
0.40982288 0.27464417 -0.35845372 -0.49475026 0.66444135 -0.13421553 0.043771714 0.6304939
-0.28038672 -0.19052595 -0.52332807 0.24593148 -0.33970708 -0.332528 0.023471955 -0.035153948
-0.43241847 -0.5507782 -0.22303344 0.3662215 -0.03127295 -0.021831512 0.3840494 0.47528908
-0.040450398 0.031635232 -0.45319885 -0.16771515 -0.23032917 -0.12046752 0.09386833 -0.41756636
-0.5467138 -0.2718097 0.15743883 -0.45834196 -0.13595793 -0.19757788 -0.023082875 0.5033758
0.6795055 -0.2102183 0.070380695 0.25902534 0.01872798 0.22836602 -0.071283445 -0.08703477
0.6836436 0.44396314 0.016048145 -0.26368594 0.3510604 -0.16160043 -0.05011975 -0.031980593
0.39460793 0.5971131 0.40862352 0.93367714 -0.4622886 -0.40281948 0.2074771 0.2356892
0.14079736 -0.40064755 0.3807925 -0.068389446 0.32443213 0.82344174 0.412145 -0.043014746
-0.1058577 0.36466813 -0.19477881 -0.04114459 0.3630214 0.47097704 0.37140822 -0.051133987
-0.23761356 0.5005385 -0.20248495 0.47128853 -0.15942483 -0.059986863 -0.0015287341 0.1412902
-0.6116893 -0.10401474 -0.6939365 -0.67203 -0.47053504 -0.27214864 0.18282384 -0.09876451
0.37685758 0.33184054 0.102846 0.59827775 0.19647574 0.12530626 0.3711443 -0.31230152
0.15832889 0.5617812 -0.7284917 -0.20438866 -0.39181793 0.2835965 -0.09598059 -0.117427126
0.44776836 0.039772276 -0.100670986 0.683254 0.2236646 0.37101278 -0.17395753 -0.07465011
0.29087973 0.091686845 -0.22085421 -0.2653065 -0.3036159 -0.26930192 0.33974856 -0.2285242
-0.20139399 0.32803234 0.19911714 -0.2135358 0.30786648 0.21685648 -0.10908053 -0.29539448
0.5617928 0.47867426 -0.35276303 -0.06334439 -0.17017655 -0.39559788 -0.24484198 0.59837735
0.032881174 -0.44417554 -0.22145116 0.14310035 0.30713332 -0.09040303 -0.08917056 0.04964113
00000000: d8f0 81be 45d5 2fbf 3236 9bbd e587 ec3d
00000010: 05f6 763e e7ea 2abf 25c7 c8bc 4b24 d3bd
00000020: b083 4abf 5ec9 453f 3b22 913b cbaa d63e
00000030: 78fb 023e aa7c 0e3e 828b 1cbf 893e 853e
00000040: 7022 a73e 02bf 51bd 5a03 f9be fd54 b93d
00000050: bafe 1bbd 1269 77bf 5dea a3be 959e 3dbf
00000060: 6c6a 43bc dd91 21bf 9708 ca3d 25b8 70be
00000070: 638a a2bd 1649 34be db71 3b3e a897 b93e
00000080: d0ec 413f 707c c33e 2f6d a23d 4bca 9c3e
00000090: 3968 8a3e a1bf d73d b47a ab3e 7591 083f
000000a0: 0162 9f3e 0a1c 78be ee31 123e 6792 d3be
000000b0: 2203 b93e 5e68 bf3e 8fb8 ef3e 9cc2 f53d
000000c0: 4966 47bf 1659 e9bd 2e77 b63d 52aa 933f
000000d0: 429a 5c3d 7df5 1e3c 1ff4 613f 28ae 51bf
000000e0: ed38 eebe 6e08 60be 96e4 943e 2020 b9bb
000000f0: 6e42 8f3e d4aa 88bc d358 223e 9c01 42bd
00000100: 7f49 863e bcbb 20be f06f 09bf 2d77 98be
00000110: 8f2c 993e e7a1 08bf e0d8 edbe 29fa 283e
00000120: 1021 3e3e 2742 01bf 3e60 dabe 38e0 b33e
00000130: 4961 173f b2db 33be eaaf 12bf ceed f93e
00000140: 99b1 6abf 5ed3 e5be 8683 51bc 220d 9bbe
00000150: 4a92 96be 0d40 43bf 36ae b23e c7e9 d23c
00000160: a15d 073f 4e8a a2be 7c29 1ebf 9889 babe
00000170: 9af5 babd 2f3c e03e 8f45 ea3d 8ab5 cdbe
00000180: 6322 95be dc65 053f 6cad 483e f5d2 293f
00000190: 2fcf 56bf f065 66bf 689a 0cbf 9ed8 673e
000001a0: 4ed4 d13e 299e 8c3e 3f87 b7be e84f fdbe
000001b0: d418 2a3f cc6f 09be f849 333d 0c68 213f
000001c0: d98e 8fbe 3c19 43be d4f8 05bf 76d5 7b3e
000001d0: 16ee adbe 1c41 aabe 4248 c03c 96fd 0fbd
000001e0: f465 ddbe cdff 0cbf e162 64be 6281 bb3e
000001f0: 1118 00bd 00d8 b2bc 1fa2 c43e 1759 f33e
00000200: 51af 25bd f293 013d ae09 e8be 85bd 2bbe
00000210: 69db 6bbe adb7 f6bd 0a3e c03d 42cb d5be
00000220: 70f5 0bbf a42a 8bbe a537 213e ccab eabe
00000230: 8e38 0bbe db51 4abe 4c18 bdbc 3ddd 003f
00000240: 13f4 2d3f 7743 57be c123 903d f89e 843e
00000250: 6c6b 993c c8d8 693e 0efd 91bd 493f b2bd
00000260: 4403 2f3f 234f e33e 6677 833c d801 87be
00000270: 30be b33e 957a 25be 5e4a 4dbd 15fe 02bd
00000280: 0d0a ca3e 67dc 183f 1a37 d13e 7705 6f3f
00000290: 17b1 ecbe 5b3e cebe e074 543e 8258 713e
000002a0: 2f2d 103e ad21 cdbe 3cf7 c23e c40f 8cbd
000002b0: f81b a63e 14cd 523f ab04 d33e 3b30 30bd
000002c0: eccb d8bd c8b5 ba3e 1974 47be 3b87 28bd
000002d0: f1dd b93e e723 f13e 3829 be3e df71 51bd
000002e0: f850 73be 4b23 003f 3758 4fbe bb4c f13e
000002f0: 4340 23be c9b4 75bd ce5f c8ba 61ae 103e
00000300: ac97 1cbf ae05 d5bd d3a5 31bf 280a 2cbf
00000310: f8e9 f0be 1157 8bbe 2c36 3b3e 0c45 cabd
00000320: 7af3 c03e 01e7 a93e eca0 d23d bb28 193f
00000330: f030 493e 4950 003e a006 be3e fce5 9fbe
00000340: f820 223e e5d0 0f3f 6f7e 3abf 434b 51be
00000350: 5c9c c8be 8f33 913e 7991 c4bd a27d f0bd
00000360: e541 e53e 41e8 223d 972c cebd bce9 2e3f
00000370: 5508 653e 63f5 bd3e ec21 32be 28e2 98bd
00000380: 30ee 943e 50c6 bb3d 9b27 62be 41d6 87be
00000390: 8b73 9bbe f1e1 89be 86f3 ad3e 3f02 6abe
000003a0: 3a3a 4ebe dbf3 a73e 5de5 4b3e 21a9 5abe
000003b0: ada0 9d3e a00f 5e3e 9d65 dfbd f23d 97be
000003c0: a7d1 0f3f cb14 f53e 5b9d b4be b4ba 81bd
000003d0: c342 2ebe ce8b cabe dbb7 7abe 422f 193f
000003e0: 69ae 063d fa6a e3be 18c4 62be e688 123e
000003f0: 9440 9d3e 3925 b9bd 0e9f b6bd 7f54 4b3d

conv4.bias f4 [64]
-0.06186579 -0.03966457 -0.13821052 -0.03818013 0.041319188 -0.09076805 -0.032783307 -0.06935195
-0.100904785 -0.051804792 0.07949159 -0.037070565 -0.14576301 -0.043865874 0.006782617 0.14152493
-0.20487884 -0.058236327 -0.057494387 -0.00036755126 -0.06360395 0.0029993646 0.12502994 -0.019980995
-0.035905622 0.010887068 0.074757196 0.007531746 -0.008737958 0.010555614 0.09650925 -0.10072278
-0.053033706 0.007957947 -0.06913764 0.07601873 0.008735286 0.0619228 0.021410534 -0.023380926
-0.00679454 0.09082523 -0.120926134 0.05657362 -0.025357153 -0.083375104 0.014906367 -0.06665798
-0.0437583 -0.045820188 0.10276813 -0.08173559 -0.14665382 -0.17071705 0.1785818 0.0025544823
0.040084567 -0.27060753 -0.07688087 0.052543603 0.09507564 0.042236283 -0.051604148 -0.07551497
00000000: fc66 7dbd 5177 22bd 0f87 0dbe c562 1cbd
00000010: 4f3e 293d 99e4 b9bd ca47 06bd 6508 8ebd
00000020: 2ba7 cebd 4331 54bd 7dcc a23d 4ed7 17bd
00000030: e642 15be b4ac 33bd b740 de3b e9eb 103e
00000040: c2cb 51be 3789 6ebd 3c7f 6bbd e5b3 c0b9
00000050: ca42 82bd fd90 443b d907 003e 2faf a3bc
00000060: c611 13bd ac5f 323c 4d1a 993d ddcc f63b
00000070: a729 0fbc 74f1 2c3c a4a6 c53d bf47 cebd
00000080: df39 59bd 0d62 023c 0998 8dbd b5af 9b3d
00000090: 721e 0f3c c3a2 7d3d 2565 af3c 5b89 bfbc
000000a0: bca4 debb 9402 ba3d 1fa8 f7bd bdb9 673d
000000b0: ceb9 cfbc 91c0 aabd d639 743c fb83 88bd
000000c0: e73b 33bd f3ad 3bbd 1978 d23d fd64 a7bd
000000d0: 6b2c 16be 73d0 2ebe 26de 363e 1a69 273b
000000e0: b72f 243d 128d 8abe b873 9dbd f637 573d
000000f0: 04b7 c23d f4ff 2c3d df5e 53bd 98a7 9abd

bn4.weight f4 [64]
0.8271191 1.4968034 0.8899749 1.0339884 1.0524043 1.0497868 1.0692754 0.8884841
1.0777977 1.045181 0.95355606 0.99024916 1.1460354 0.9180814 1.1390898 1.0603942
0.9474766 0.96932787 1.0065253 1.0219815 1.0491836 1.2168621 1.100151 0.81968373
1.0239356 0.8711662 1.1628871 0.8377498 0.96208435 0.949665 0.95404977 1.0114702
1.0993457 0.97803986 1.0022057 0.9642418 1.0047748 1.0440235 1.0486277 1.1640469
1.0394055 0.90932363 0.99484473 1.0181292 1.0376937 1.0917367 0.8009859 0.8475011
0.8294339 0.9072654 1.0881951 0.9479855 0.89343786 1.0822836 0.8238963 1.02098
1.0359619 1.0411283 0.9111119 0.70606726 1.3895913 0.81226885 0.92604256 0.9379731
00000000: 14be 533f 4197 bf3f 65d5 633f bb59 843f
00000010: 2fb5 863f 6a5f 863f 04de 883f b273 633f
00000020: 46f5 893f 7ec8 853f 401c 743f f880 7d3f
00000030: 4ab1 923f 6207 6b3f b2cd 913f ffba 873f
00000040: d48d 723f df25 783f d2d5 803f 4ad0 823f
00000050: a64b 863f 23c2 9b3f bfd1 8c3f cbd6 513f
00000060: 5210 833f c004 5f3f 7cd9 943f c576 563f
00000070: 294b 763f 3f1d 733f 9b3c 743f db77 813f
00000080: 5cb7 8c3f d260 7a3f 4748 803f 8dd8 763f
00000090: 769c 803f 90a2 853f 6f39 863f 7dff 943f
000000a0: 3d0b 853f 6fc9 683f 25ae 7e3f 0f52 823f
000000b0: 26d3 843f 07be 8b3f 690d 4d3f d5f5 583f
000000c0: c855 543f 8c42 683f fa49 8b3f 2daf 723f
000000d0: 58b8 643f 4588 8a3f deea 523f 79af 823f
000000e0: 669a 843f b143 853f a13e 693f d3c0 343f
000000f0: 21de b13f daf0 4f3f 2011 6d3f 011f 703f

bn4.bias f4 [64]
-0.07971528 -0.19163753 -0.42542994 -0.29364306 -0.5714132 -0.47355518 -0.5079095 -0.4539621
-0.7830032 -0.30018237 -0.4198078 -0.62496376 -0.63350224 -0.56566733 -0.8135926 -0.6454396
-0.42003316 -0.43691102 -0.9981997 -0.54794425 -0.67971075 -0.5988413 -0.76647264 -0.46915787
-0.64206105 -0.525487 -0.46399176 -0.14764962 -0.6587842 -0.6705422 -0.4752658 -0.80595106
-0.6753076 -0.79741013 -0.80656666 -0.67457384 -0.3767719 -0.5528797 -0.80739444 -0.8192985
-0.49418366 -0.215405 -0.6289291 -0.7438274 -0.57941407 -0.7423691 -0.2559641 -0.4036388
0.08202377 -0.30943558 -0.62805873 -0.6454765 -0.6415496 -0.7918352 0.03304705 -0.4698398
-0.46093974 -0.5503089 -0.7065577 -0.37153625 -0.4019943 -0.5476393 -0.5327483 -0.023974424
00000000: c441 a3bd a13c 44be f4d1 d9be 6258 96be
00000010: 2348 12bf d375 f2be 5b06 02bf b86d e8be
00000020: e672 48bf 81b1 99be 0cf1 d6be a0fd 1fbf
00000030: 342d 22bf 93cf 10bf 9b47 50bf 883b 25bf
00000040: 960e d7be cdb2 dfbe 048a 7fbf 1346 0cbf
00000050: 8601 2ebf aa4d 19bf 8d37 44bf 7635 f0be
00000060: 1d5e 24bf 5186 06bf 5490 edbe 7631 17be
00000070: 15a6 28bf a7a8 2bbf 0a56 f3be cf52 4ebf
00000080: f5e0 2cbf 1223 4cbf 277b 4ebf dfb0 2cbf
00000090: 3fe8 c0be 8689 0dbf 67b1 4ebf 8cbd 51bf
000000a0: a405 fdbe 2193 5cbe 7f01 21bf 796b 3ebf
000000b0: 7b54 14bf e70b 3ebf ba0d 83be bfa9 cebe
000000c0: 14fc a73d 576e 9ebe 75c8 20bf f33d 25bf
000000d0: 983c 24bf b6b5 4abf 585c 073d d88e f0be
000000e0: 4b00 ecbe 0be1 0cbf f7e0 34bf 003a bebe
000000f0: 32d2 cdbe 1732 0cbf 3162 08bf 0366 c4bc

bn4.running_mean f4 [64]
1.9457431 -10.099642 -7.533064 -3.365212 -7.5287337 1.210764 -9.386762 -3.2900653
-8.476752 -10.814415 -9.434571 -6.751744 -10.093133 -3.357429 -10.056559 -8.452714
-10.548291 -11.621813 -11.231278 -5.7916574 -8.031115 -9.250285 -9.224142 -6.979979
-6.108969 -7.5659947 -13.036985 10.792412 -9.172031 -3.888533 -11.251799 -8.822661
-5.3078628 -8.7610655 -4.638194 -7.5809474 -10.12776 -11.059042 -11.72762 -3.954356
-12.903565 -6.3060164 -8.466181 -8.698144 -5.9535346 -8.235089 7.4281225 -11.51271
2.7520022 -3.9553342 -4.1215825 -5.9922013 -7.9161596 -5.942698 -0.803963 -7.783406
-7.375904 -3.0258856 -7.658029 -5.872051 -10.259235 -7.7570887 -8.436862 -11.805134
00000000: 1c0e f93f 2298 21c1 dc0e f1c0 a25f 57c0
00000010: 63eb f0c0 51fa 9a3f 2d30 16c1 6e90 52c0
00000020: c7a0 07c1 d807 2dc1 01f4 16c1 490e d8c0
00000030: 797d 21c1 1ee0 56c0 aae7 20c1 513e 07c1
00000040: cdc5 28c1 f2f2 39c1 51b3 33c1 4255 b9c0
00000050: 727f 00c1 2b01 14c1 1696 13c1 fd5b dfc0
00000060: ad7c c3c0 a11c f2c0 7e97 50c1 b8ad 2c41
00000070: a4c0 12c1 badd 78c0 5e07 34c1 9f29 0dc1
00000080: 03da a9c0 532d 0cc1 166c 94c0 1f97 f2c0
00000090: 4e0b 22c1 d6f1 30c1 55a4 3bc1 2b14 7dc0
000000a0: 0175 4ec1 e3ca c9c0 7a75 07c1 992b 0bc1
000000b0: 5b83 bec0 edc2 03c1 2eb3 ed40 0f34 38c1
000000c0: ce20 3040 3224 7dc0 01e4 83c0 1dc0 bfc0
000000d0: 2e51 fdc0 952a bec0 85d0 4dbf a911 f9c0
000000e0: 6807 ecc0 1ca8 41c0 930e f5c0 d7e7 bbc0
000000f0: d425 24c1 123a f8c0 63fd 06c1 d4e1 3cc1

bn4.running_var f4 [64]
95.27547 249.96121 59.155563 67.56489 62.664345 90.838524 63.696087 53.50771
47.07259 88.078766 59.732502 60.84204 75.287056 50.71062 78.52482 82.68998
78.32129 50.873276 52.474476 61.044758 70.26649 82.03246 61.757366 60.596024
47.232006 46.65587 101.10997 105.79469 54.010258 49.978996 49.14181 57.865604
53.75141 65.83445 40.27219 48.476665 61.86947 65.08441 68.82912 39.25467
81.84081 66.69513 49.499233 53.582657 58.350693 60.003796 81.79622 59.90861
157.1725 46.72751 54.10372 48.780922 46.12317 57.489628 91.281204 73.49128
59.801624 79.68686 48.370632 41.37066 144.07808 53.251457 58.84362 111.0331
00000000: 0a8d be42 12f6 7943 4c9f 6c42 3921 8742
00000010: 4aa8 7a42 53ad b542 cbc8 7e42 e507 5642
00000020: 554a 3c42 5428 b042 15ee 6e42 405e 7342
00000030: f992 9642 add7 4a42 b50c 9d42 4561 a542
00000040: 80a4 9c42 3c7e 4b42 dde5 5142 d52d 7442
00000050: 7188 8c42 9f10 a442 8b07 7742 5462 7242
00000060: 93ed 3c42 9c9f 3a42 4e38 ca42 e296 d342
00000070: 810a 5842 7eea 4742 3791 4442 6176 6742
00000080: 7201 5742 3dab 8342 b916 2142 1be8 4142
00000090: 567a 7742 382b 8242 82a8 8942 c804 1d42
000000a0: 7fae a342 e863 8542 37ff 4542 a454 5642
000000b0: 1c67 6942 e303 7042 aa97 a342 6ba2 6f42
000000c0: 292c 1d43 f8e8 3a42 366a 5842 aa1f 4342
000000d0: 207e 3842 61f5 6542 fa8f b642 89fb 9242
000000e0: dd34 6f42 ac5f 9f42 877b 4142 8e7b 2542
000000f0: fd13 1043 7e01 5542 de5f 6b42 f210 de42
